1.pth (torch, 82759 bytes, 9 tensors)

weight f4 [128, 80]
0.22579622 0.09490883 -0.029671516 -0.06762854 -0.07623882 -0.111997604 0.10039057 -0.07414456
-0.035777252 0.076875076 -0.18916959 0.022614554 0.04483335 0.17025448 0.0065412815 0.14268743
0.23212093 0.18953043 0.15807852 0.06468724 0.012517664 0.0125778215 0.17174113 -0.13191226
0.18294342 -0.13201334 -0.075812355 0.057899058 0.13720821 0.22035807 -0.29041263 0.0071591116
0.26615325 -0.0961462 -0.13366076 0.07618626 0.12304009 -0.44679183 -0.03282697 0.035798308
-0.39138335 -0.16786496 0.18299863 0.35248697 0.033082932 0.11325143 -0.23468605 0.12413159
0.009335511 0.15235455 -0.10213238 -0.032034587 0.2367574 -0.2684211 -0.12406026 0.08962981
-0.104388185 0.3857658 -0.2122485 -0.093063086 0.06459964 -0.03145042 0.17472279 0.1468649
0.07619535 -0.04153447 -0.03507589 0.26740384 -0.09842827 0.23257753 -0.25277117 0.15688924
-0.02982352 -0.13196482 0.060647164 -0.14319542 0.2682897 -0.033045053 0.24792883 -0.093050174
0.04067927 -0.08043169 -0.0948742 0.076784916 0.09506559 -0.2897234 0.01215334 -0.022373484
-0.010646211 0.0462447 -0.061989054 0.06801857 0.057925522 0.03360376 -0.057189655 -0.028730266
0.018397668 0.022811148 0.014481933 0.07277736 0.12695496 -0.13588552 -0.1363674 0.15973516
-0.15397397 0.14655863 -0.07877927 0.036345832 -0.065069266 0.110002525 0.052539863 0.04116253
0.16309588 -0.0701466 0.05210206 0.1235883 -0.14552362 -0.18053186 -0.020170122 -0.36245978
-0.17972726 -0.13112338 0.0035794238 -0.13186316 0.0040670424 0.037249573 -0.37018475 0.046727095
0.1264193 0.15500875 0.08965386 0.06362824 0.06988614 -0.06804402 0.15277839 -0.25840694
0.010580824 -0.20957889 -0.14151835 0.17745839 0.29678252 -0.28707698 -0.08283253 0.27078393
0.06263109 0.001152502 -0.062284343 0.2780558 0.13837343 -0.2507469 -0.19400299 -0.048668582
-0.023433005 -0.06484381 0.11937139 -0.26477984 0.2530032 -0.05623287 0.14736284 -0.07816547
-0.07599734 -0.04438173 -0.07940006 0.06819421 -0.04520131 0.065916345 0.030558363 -0.026506677
0.075360015 -0.011320114 0.06903118 0.09705283 0.018661574 0.019544542 0.083045185 0.0017881095
0.059360072 -0.06296818 0.011690192 0.06436184 0.09790985 0.05805303 0.04444915 -0.06628532
-0.0032785982 -0.08893574 -0.04028318 -0.03755226 -0.0029175654 -0.05636181 0.08098133 0.01830624
0.06197898 -0.085889876 -0.05437303 0.007102385 0.05443807 0.10904987 -0.059795756 -0.01755698
0.006746486 0.054918706 -0.0122113675 0.03324753 0.033414274 0.009249248 -0.10206834 -0.10100288
-0.07576654 0.10548447 -0.04763668 0.08156699 0.07937911 -0.103575446 -0.06470096 0.06479092
-0.017084703 0.028364897 0.045922264 0.05778323 -0.0057669207 -0.035853446 -0.039364286 -0.066290274
-0.03713967 -0.009332612 -0.030666202 0.059140757 -0.10959483 0.10368046 -0.07582812 -0.03430417
0.02187261 -0.11145916 0.056787193 0.043602765 -0.10864026 -0.010614686 -0.004214473 0.05776055
-0.059567858 -0.044576734 0.042514086 0.025252327 0.06175141 -0.06626223 -0.091307156 -0.077495664
0.0076873004 -0.036684208 -0.08357537 -0.039355837 0.10097301 -0.108341105 0.048016533 0.08014408
00000000: 2037 673e 905f c23d ae11 f3bc d580 8abd
00000010: 1923 9cbd 005f e5bd 9299 cd3d 1ad9 97bd
00000020: 2b8b 12bd ae70 9d3d acb5 41be 2842 b93c
00000030: 2da3 373d 3157 2e3e 3f58 d63b a71c 123e
00000040: 1cb1 6d3e 4414 423e 56df 213e be7a 843d
00000050: e316 4d3c 3513 4e3c e8dc 2f3e 0214 07be
00000060: 8555 3b3e 812e 07be 8243 9bbd 9027 6d3d
00000070: 4f80 0c3e 8ca5 613e f7b0 94be fb96 ea3b
00000080: 3d45 883e 4de8 c4bd 5ede 08be 8b07 9c3d
00000090: 71fc fb3d e6c1 e4be 9375 06bd 3fa1 123d
000000a0: 6663 c8be cbe4 2bbe fe63 3b3e 2c79 b43e
000000b0: f881 073d 5ef0 e73d 8a51 70be b438 fe3d
000000c0: f9f3 183c d502 1c3e c82a d1bd b336 03bd
000000d0: 8870 723e 7e6e 89be 4e13 febd d58f b73d
000000e0: 79c9 d5bd 1883 c53e ac57 59be dc97 bebd
000000f0: d14c 843d 28d2 00bd 88ea 323e c163 163e
00000100: 4f0c 9c3d 0c20 2abd bdab 0fbd 28e9 883e
00000110: c394 c9bd ce28 6e3e 396b 81be 93a7 203e
00000120: 7450 f4bc c921 07be 2969 783d d2a1 12be
00000130: 445d 893e 405a 07bd 0ee1 7d3e 1791 bebd
00000140: 4e9f 263d 5fb9 a4bd 684d c2bd 6941 9d3d
00000150: c0b1 c23d a056 94be cd1e 473c 9948 b7bc
00000160: 726d 2ebc 156b 3d3d 3ce8 7dbd 524d 8b3d
00000170: 5043 6d3d 19a4 093d b33f 6abd bc5b ebbc
00000180: b5b6 963c 72de ba3c a145 6d3c 4c0c 953d
00000190: 7b00 023e 9325 0bbe e5a3 0bbe 9d91 233e
000001a0: 5aab 1dbe 7713 163e 0757 a1bd 5edf 143d
000001b0: 0943 85bd 0149 e13d 0a34 573d 0b9a 283d
000001c0: 9b02 273e 05a9 8fbd f868 553d dd1b fd3d
000001d0: 2504 15be 58dd 38be d03b a5bc 5494 b9be
000001e0: 6c0a 38be 3545 06be c494 6a3b 2307 07be
000001f0: d344 853b 0293 183d db88 bdbe e964 3f3d
00000200: 1074 013e 9dba 1e3e 719c b73d 864f 823d
00000210: 7720 8f3d aa5a 8bbd f071 1c3e ea4d 84be
00000220: 315b 2d3c d99b 56be 30ea 10be a7b7 353e
00000230: e1f3 973e c1fb 92be 1aa4 a9bd 31a4 8a3e
00000240: bb44 803d 8d0f 973a de1d 7fbd 545d 8e3e
00000250: c4b1 0d3e e661 80be b8a8 46be b558 47bd
00000260: 93f6 bfbc d5cc 84bd fd78 f43d 3991 87be
00000270: a389 813e 7054 66bd 49e6 163e 3815 a0bd
00000280: 7ea4 9bbd 9ec9 35bd 809c a2bd 68a9 8b3d
00000290: 0225 39bd 26ff 863d 8855 fa3c 8824 d9bc
000002a0: 5a56 9a3d 0078 39bc 3860 8d3d a2c3 c63d
000002b0: 28e0 983c e01b a03c 9813 aa3d 005f ea3a
000002c0: 8c23 733d 76f5 80bd 3888 3f3c 24d0 833d
000002d0: f684 c83d 04c9 6d3d 5010 363d 99c0 87bd
000002e0: c0dd 56bb f123 b6bd faff 24bd 66d0 19bd
000002f0: a034 3fbb a4db 66bd 8ad9 a53d f8f6 953c
00000300: acdd 7d3d 08e7 afbd 41b6 5ebd 20bb e83b
00000310: 74fa 5e3d 8a55 df3d 65ec 74bd a8d3 8fbc
00000320: a011 dd3b 70f2 603d 3012 48bc 902e 083d
00000330: 68dd 083d 288a 173c 3509 d1bd 99da cebd
00000340: 7d2b 9bbd 3e08 d83d ae1e 43bd 980c a73d
00000350: 8491 a23d 5d1f d4bd f081 84bd 1ab1 843d
00000360: 38f5 8bbc 805d e83c fc18 3c3d 1cae 6c3d
00000370: 70f8 bcbb 10db 12bd 723c 21bd 32c3 87bd
00000380: c41f 18bd d0e7 18bc b037 fbbc 943d 723d
00000390: 4173 e0bd 6c56 d43d c64b 9bbd 8882 0cbd
000003a0: 302e b33c b344 e4bd b099 683d d098 323d
000003b0: c97e debd 38e9 2dbc 9019 8abb 5496 6c3d
000003c0: 6dfd 73bd 1896 36bd 4023 2e3d f8dd ce3c
000003d0: 0cef 7c3d 7eb4 87bd 3fff babd 0cb6 9ebd
000003e0: c0e5 fb3b 2e42 16bd 9029 abbd 9633 21bd
000003f0: f0ca ce3d f1e1 ddbd fcac 443d 9422 a43d

bias f4 [128]
0.007720245 0.107904896 -0.08689889 -0.069689 -0.030167073 -0.046288744 0.01653405 0.05484754
0.07931873 0.06962972 0.03529528 -0.09541145 0.016889477 0.100129895 -0.03258866 0.03837788
0.11179616 -0.03577335 -0.081027105 0.060779616 -0.020454422 0.09059866 -0.047075734 0.09601218
0.011996789 -0.05823894 0.06561872 -0.08976785 0.07568041 -0.021840973 -0.09099819 -0.07097279
0.06891797 -0.07217996 0.054214127 0.04288161 -0.0927306 0.027961737 -0.02440475 0.081084855
0.119483285 -0.05016526 0.060237598 -0.06478217 0.12100993 -0.08283665 -0.0938628 -0.040284798
0.06959347 0.08133563 0.05306679 -0.06361632 0.05606279 0.094165064 0.06340519 -0.070037805
0.09956524 -0.1048292 0.03983334 0.025575154 0.11310895 0.052517943 0.036827266 0.11792151
0.014264962 -0.050946105 0.092958175 0.025160693 -0.08442528 -0.030783065 0.010827758 -0.09516409
-0.082902044 0.07181157 -0.028061792 -0.102090016 0.014590787 -0.07931224 0.04084451 0.036600348
0.09355763 0.058102768 0.102869146 0.06711377 0.05388768 0.04160759 0.08187088 -0.046971157
-0.003975003 -0.058282346 0.107864454 -0.00068829284 0.080833785 0.09527391 0.069696 0.088177286
0.046289794 -0.10487277 -0.010955867 0.030615617 0.020913295 -0.066191226 -0.041046493 0.0085965125
0.09884308 -0.0962069 -0.0844783 0.17378007 -0.040762283 -0.016257402 0.08839261 -0.08796513
0.10211175 0.10024691 0.075130865 0.053763296 -0.066155255 -0.088555 -0.09388551 -0.075434275
-0.03373307 0.10356256 0.069823876 0.0607771 0.03263985 0.10194871 0.070856094 -0.06995359
00000000: 1cfa fc3b 3efd dc3d 0cf8 b1bd 1bb9 8ebd
00000010: f020 f7bc 4499 3dbd 6b72 873c d0a7 603d
00000020: dc71 a23d 079a 8e3d c991 103d 1467 c3bd
00000030: cd5b 8a3c e710 cd3d b07b 05bd 2032 1d3d
00000040: 63f5 e43d 1487 12bd 8af1 a5bd 0cf4 783d
00000050: 0890 a7bc ca8b b93d 7cd2 40bd 09a2 c43d
00000060: 2e8e 443c f48b 6ebd 1c63 863d 35d8 b7bd
00000070: 55fe 9a3d d7eb b2bc 425d babd 2f5a 91bd
00000080: dd24 8d3d 16d3 93bd a20f 5e3d a1a4 2f3d
00000090: 8ae9 bdbd 0310 e53c 78ec c7bc d10f a63d
000000a0: a7b3 f43d 167a 4dbd b3bb 763d 84ac 84bd
000000b0: 0ed4 f73d 43a6 a9bd 243b c0bd ac01 25bd
000000c0: 0587 8e3d 4b93 a63d 905c 593d 4649 82bd
000000d0: 19a2 653d 9dd9 c03d 95da 813d fb6f 8fbd
000000e0: dce8 cb3d b1b0 d6bd 4928 233d fc82 d13c
000000f0: aaa5 e73d 0e1d 573d 30d8 163d d580 f13d
00000100: 96b7 693c ddac 50bd db60 be3d cc1d ce3c
00000110: 29e7 acbd c42c fcbc e966 313c 64e5 c2bd
00000120: 8cc8 a9bd f211 933d d8e1 e5bc 9214 d1bd
00000130: 320e 6f3c 756e a2bd 934c 273d 3fea 153d
00000140: 259b bf3d 2bfd 6d3d 0fad d23d f272 893d
00000150: 54b9 5c3d b86c 2a3d ecab a73d d464 40bd
00000160: be40 82bb 78b9 6ebd 0ae8 dc3d 8d6e 34ba
00000170: 2f8c a53d f81e c33d c7bc 8e3d 4b96 b43d
00000180: 5e9a 3d3d 89c7 d6bd 3d80 33bc 9acd fa3c
00000190: 5c52 ab3c 448f 87bd 5e20 28bd 63d8 0c3c
000001a0: 3e6e ca3d 2008 c5bd f502 adbd 67f3 313e
000001b0: 5af6 26bd 3e2e 85bc 2f07 b53d 1027 b4bd
000001c0: f71f d13d 404e cd3d 36de 993d e736 5c3d
000001d0: 687c 87bd 535c b5bd 0c47 c0bd 497d 9abd
000001e0: b02b 0abd 9c18 d43d d2ff 8e3d 69f1 783d
000001f0: 5db1 053d 7cca d03d 001d 913d d443 8fbd

weight f4 [64, 128]
0.049854662 -0.08431928 -0.016924754 0.009466216 -0.004347287 0.048060067 0.033165783 -0.034874193
-0.08901081 0.00037230496 0.025499962 0.034199916 0.0031507285 0.0396329 0.00048787892 0.0077573108
0.054483537 0.045804817 -0.086755 0.052332133 -0.055617128 0.052210547 0.028652959 -0.036979415
-0.008491777 0.066935144 0.037654046 0.050838836 -0.018150084 -0.056017872 -0.036012225 0.06656798
-0.0065156864 0.0197554 -0.084672004 -0.0046156202 -0.080675125 0.012196602 -0.041504003 -0.06160707
0.07243354 0.009588301 -0.03075199 0.007342592 0.02423858 0.0033309609 -0.0067505687 -0.032263707
0.058450412 0.050028715 0.04982738 0.055119492 0.05621786 -0.07679627 0.07803153 -0.02282723
0.057944097 -0.005072437 -0.0058435006 -0.068226404 0.01979115 0.0050187074 -0.077900775 0.047100887
0.05456785 -0.015099846 0.033844706 0.0033297588 -0.04859639 -0.01212921 -0.0028744615 0.07381941
-0.06106507 -0.029233618 0.07742713 0.05239109 0.042256203 -0.077573866 -0.038118746 0.027074587
-0.003856518 -0.025980964 0.011165696 0.058605783 -0.041701067 0.01715949 -0.007775982 -0.05206925
-0.08580851 -0.022086412 0.061373726 -0.04049268 -0.08312219 -0.0026916298 0.072150305 -0.07927782
0.056513302 -0.047963586 -0.005496487 -0.021222828 -0.025258683 0.06718277 -0.07239454 0.008005761
0.0076208664 0.087654315 -0.043599978 -0.076553546 0.014676668 0.013460562 -0.046960764 -0.04417822
0.035588138 0.038575158 0.06892052 -0.029504905 -0.043392625 0.06942574 -0.08766322 0.058888055
-0.053675033 0.057180334 -0.07178585 0.017390573 0.07841045 -0.00953639 -0.071763575 -0.0042258427
0.1563099 -0.14287925 0.038937308 0.005396776 0.073526256 -0.06662584 0.98768324 -0.19860075
-0.06511136 0.20225573 -0.11640763 8.253753e-05 0.4348938 0.010388038 -0.071919866 -0.069186196
0.10258703 -0.07917514 -0.041143425 0.61809915 0.048608102 -0.08377363 0.007346481 -0.32676014
-0.0686674 0.06661936 0.07522157 -0.060085714 0.08270921 -0.7185784 -0.047646884 0.035240583
-0.27327976 0.015462138 -0.12832138 0.092186615 0.04708632 0.18945311 0.04488387 0.1511689
0.14997257 0.084249325 -0.094614305 -0.037274376 -0.42704502 0.037046663 -0.067590035 0.030194886
0.12293696 0.13545237 0.5772957 -0.06353926 0.4683252 0.7991676 0.15620515 -0.03852501
-0.1481151 0.0018642917 0.005387145 0.36896828 -0.13294514 0.03981173 -0.32075638 -0.041997254
0.16787674 -0.0039663985 0.02662102 0.104859725 -0.021120705 -0.012320988 0.33073694 0.007590182
0.009072155 -0.19339411 0.00569696 0.086536534 0.97498125 0.07093131 -0.07635091 0.0035071452
-0.4893296 0.040279858 0.07768014 0.02024804 -0.08634012 0.14232914 -0.079889484 0.03207975
-0.027474446 0.0021501929 -0.23390234 0.07953544 -0.017207151 -0.0912618 -0.49797496 0.024798565
0.43287373 -0.04792438 0.16194066 0.17062834 0.10926617 -0.05943106 0.06536008 -0.29255173
0.5883446 0.06752267 -0.08607368 -0.09729691 -0.06011443 -0.057200223 -0.31665903 0.020894572
-0.015672373 0.61485964 -0.10605959 0.24916308 -0.055529136 -0.02099599 -0.07872533 0.05569502
0.00045576692 0.042731743 -0.08786723 -0.4687608 -0.68695974 0.061562072 -0.052285165 -0.057921223
00000000: 6734 4c3d 96af acbd c8a5 8abc 3018 1b3c
00000010: b073 8ebb a2da 443d d8d8 073d 3ed8 0ebd
00000020: 4d4b b6bd ed31 c339 4ce5 d03c 3615 0c3d
00000030: 747c 4e3b 1c56 223d 00ca ff39 0a31 fe3b
00000040: 212a 5f3d d59d 3b3d 9bac b1bd 385a 563d
00000050: c9ce 63bd bada 553d 9cb9 ea3c ba77 17bd
00000060: 1821 0bbc 4b15 893d 213b 1a3d 623c 503d
00000070: 7caf 94bc ff72 65bd 8e81 13bd cb54 883d
00000080: 8a81 d5bb 14d6 a13c 8468 adbd a13e 97bb
00000090: 0039 a5bd 42d4 473c 1a00 2abd b257 7cbd
000000a0: 0958 943d 4018 1d3c 99eb fbbc 209a f03b
000000b0: fd8f c63c 404c 5a3b e033 ddbb f326 04bd
000000c0: b369 6f3d e9ea 4c3d cb17 4c3d fac4 613d
000000d0: b344 663d 5d47 9dbd ffce 9f3d 2c00 bbbc
000000e0: ca56 6d3d b036 a6bb d67a bfbb 49ba 8bbd
000000f0: 0d21 a23c f873 a43b 718a 9fbd dcec 403d
00000100: 8a82 5f3d 5865 77bc bfa0 0a3d 1538 5a3b
00000110: 020d 47bd 98b9 46bc 7661 3cbb a12e 973d
00000120: 5e1f 7abd 577b efbc 1d92 9e3d 0a98 563d
00000130: d714 2d3d 0cdf 9ebd 6722 1cbd 86cb dd3c
00000140: a3bd 7cbb 08d6 d4bc 53f0 363c 9e0c 703d
00000150: bdce 2abd 0f92 8c3c aacd febb 9146 55bd
00000160: 5fbc afbd 90ee b4bc 0463 7b3d a7db 25bd
00000170: f73b aabd 0e66 30bb 8ac3 933d 695c a2bd
00000180: 7e7a 673d 7775 44bd e01b b4bb 7fdb adbc
00000190: 4ceb cebc 1f97 893d 9743 94bd 982a 033c
000001a0: 76b8 f93b 1b84 b33d e495 32bd 1bc8 9cbd
000001b0: 6876 703c b089 5c3c ee59 40bd 39f4 34bd
000001c0: dec4 113d fc00 1e3d 3426 8d3d 45b4 f1bc
000001d0: 77bc 31bd 152f 8e3d c688 b3bd 9a34 713d
000001e0: 5ada 5bbd ed35 6a3d 7604 93bd ad76 8e3c
000001f0: a895 a03d 853e 1cbc c8f8 92bd f078 8abb
00000200: b40f 203e f04e 12be ba7c 1f3d 70d7 b03b
00000210: ef94 963d 2173 88bd cfd8 7c3f ff5d 4bbe
00000220: 1b59 85bd 201c 4f3e 2067 eebd 0018 ad38
00000230: 66aa de3e 9732 2a3c b94a 93bd 7eb1 8dbd
00000240: 2619 d23d 9326 a2bd 0286 28bd bf3b 1e3f
00000250: 4a19 473d 8291 abbd c0ba f03b 1b4d a7be
00000260: 7ea1 8cbd bb6f 883d c40d 9a3d 701c 76bd
00000270: 7263 a93d c1f4 37bf 6129 43bd 6e58 103d
00000280: 53eb 8bbe e854 7d3c ae66 03be 56cc bc3d
00000290: 96dd 403d ffff 413e 26d8 373d 05cc 1a3e
000002a0: 6992 193e e98a ac3d 25c5 c1bd 04ad 18bd
000002b0: a5a5 dabe 3ebe 173d a56c 8abd 445b f73c
000002c0: 5fc6 fb3d 07b4 0a3e a7c9 133f df20 82bd
000002d0: 52c8 ef3e 3f96 4c3f 3ef4 1f3e 67cc 1dbd
000002e0: 7cab 17be 405b f43a a686 b03b 69e9 bc3e
000002f0: c522 08be a011 233d 2e3a a4be 5005 2cbd
00000300: e1e7 2b3e 90f8 81bb 5314 da3c b2c0 d63d
00000310: 5405 adbc f8dd 49bc 5a56 a93e 10b7 f83b
00000320: 60a3 143c 1b09 46be 90ad ba3b 113a b13d
00000330: 5f98 793f 6f44 913d de5d 9cbd 22d8 653b
00000340: 6989 fabe 7efc 243d c416 9f3d 38df a53c
00000350: 17d3 b0bd bbbe 113e 199d a3bd 0e66 033d
00000360: 1712 e1bc 40ea 0c3b 1884 6fbe 7ae3 a23d
00000370: 03f6 8cbc 77e7 babd 93f6 febe 5c26 cb3c
00000380: a0a1 dd3e 5b4c 44bd c6d3 253e 32b9 2e3e
00000390: f1c6 df3d fc6d 73bd 81db 853d 57c9 95be
000003a0: c09d 163f 5349 8a3d 6647 b0bd 9a43 c7bd
000003b0: 8c3a 76bd c84a 6abd 2221 a2be 182b ab3c
000003c0: 5963 80bc 7167 1d3f c535 d9bd 9b24 7f3e
000003d0: 8572 63bd c8ff abbc bf3a a1bd 7620 643d
000003e0: 00f4 ee39 7b07 2f3d bcf3 b3bd 6a01 f0be
000003f0: 98dc 2fbf 8328 7c3d f828 56bd ce3e 6dbd

bias f4 [64]
-0.06604374 -0.051880166 0.07288127 0.04703979 -0.06909493 -0.07144653 0.003367598 -0.00075138157
0.0054071886 0.1260154 -0.04386624 0.11687233 0.09455846 0.043256562 -0.060281407 0.029404558
0.10260342 -0.073495515 0.047796737 -0.027183397 0.063599415 -0.02511698 -0.060246397 -0.06936348
0.065719545 -0.039385103 -0.030271742 -0.049036846 -0.040863454 0.05859239 0.07775772 -0.074453585
0.07666847 0.064240746 -0.028608207 -0.03630467 0.045332573 0.013239155 0.003158201 0.12238757
0.036459774 0.09130523 0.056678317 -0.008563658 0.0704503 -0.076403804 0.06275124 0.07689506
-0.06281607 -0.0010892717 0.055862095 0.044798132 0.046984173 0.09062211 0.005541656 -0.029072436
0.13417691 0.15231486 0.08620259 0.020347523 0.19337814 0.094330646 0.08625964 0.011557355
00000000: f141 87bd 4c80 54bd c642 953d cbac 403d
00000010: a581 8dbd 8f52 92bd ebb2 5c3b 5df8 44ba
00000020: c92e b13b 2e0a 013e 16ad 33bd c35a ef3d
00000030: dea7 c13d cb2d 313d a3e9 76bd d4e1 f03c
00000040: be21 d23d d184 96bd 83c6 433d b7af debc
00000050: 6940 823d 20c2 cdbc edc4 76bd 710e 8ebd
00000060: f897 863d 4652 21bd 72fc f7bc dcda 48bd
00000070: 7060 27bd 93fe 6f3d 713f 9f3d 1f7b 98bd
00000080: 5c04 9d3d a790 833d c25b eabc 35b4 14bd
00000090: a6ae 393d 0ae9 583c d2f9 4e3b 56a6 fa3d
000000a0: d856 153d 3dfe ba3d 8627 683d 964e 0cbc
000000b0: 3f48 903d 9979 9cbd b983 803d 287b 9d3d
000000c0: b6a5 80bd e5c5 8eba a7cf 643d 3f7e 373d
000000d0: 7a72 403d 1698 b93d c896 b53b 5129 eebc
000000e0: ac65 093e 6df8 1b3e fc8a b03d d9af a63c
000000f0: eb04 463e 6d30 c13d e5a8 b03d 0f5b 3d3c

weight f4 [16, 64]
0.09717992 1.3673834 -0.14615372 -0.04520279 -0.07808114 -0.05679366 -0.08608697 -0.09371351
0.2272957 0.33387288 0.04660207 0.08548431 0.16412556 0.12987123 -0.05493122 -0.048842642
-0.25815615 -0.11216915 -0.002949234 -0.1080134 0.77135664 0.03878109 0.12166632 0.006096043
-0.023874732 -0.02839699 0.089166 -0.011942014 -0.05908254 -0.1131461 -0.16941337 0.13834658
0.31478715 -0.16209707 0.0029316247 -0.0155058205 -0.09055582 0.15553042 -0.75421983 0.019081755
-0.068998046 -0.010830287 0.08270799 -0.060705077 2.9726775 -0.0863722 0.29039678 0.15349904
0.07550529 0.19899942 0.056706928 -0.105360545 -0.08786998 0.004253941 -0.7891982 0.02082793
0.005946598 0.20385782 0.23016739 0.4566148 1.4013232 -0.17459616 -0.3956629 0.04370198
-0.11910797 0.3277905 -0.40134233 -0.0730854 0.0615495 0.07933964 0.041752588 -0.07955342
0.007227098 0.56382227 0.11607456 0.26289445 0.9683266 0.22675267 0.044805773 0.07580661
-0.06686511 0.07628761 -0.055660333 -0.08402688 1.2664906 -0.09018165 0.07044962 0.020918744
-0.23860054 0.053832047 0.090811834 -0.035724595 -0.05651792 0.02550015 -0.38787517 0.12199516
0.34399238 0.20217289 -0.09571108 -0.027012184 -0.794586 0.13529815 -1.0463493 -0.09430879
0.11824543 0.08704071 0.46150964 -0.08815586 0.71245193 0.106653154 1.5932631 0.23606233
-0.048862398 -0.018066343 0.05816992 -0.09825112 -0.2384021 0.352153 -2.0493176 -0.06749813
0.0948998 0.3672378 0.26546815 0.85322666 3.003843 0.06947082 -1.84308 0.27340275
-0.113709465 -0.04084973 0.06604189 -0.0769386 -0.1039799 0.12124027 0.11049384 -0.021089941
-0.056895718 0.10120563 -0.0097913 -0.029592678 -0.04331827 -0.0705522 -0.10754897 0.09352687
-0.05204016 -0.044613898 -0.07521644 0.11315723 0.090636775 0.05006905 -0.015015766 0.066452265
-0.0474917 0.12381479 -0.09244226 0.053793892 -0.05854927 -0.0852932 -0.07283983 -0.06285325
-0.047729865 0.063223526 -0.097955555 -0.052748963 -0.074938595 -0.10452612 0.00909999 -0.021450713
-0.11673899 0.039252326 0.074221 0.0020667464 0.08423051 0.026318192 -0.09227981 -0.04786274
0.0047451407 -0.029524073 0.014101788 -0.04420583 -0.044311583 -0.047999367 -0.035715595 0.07633847
-0.11824483 -0.11283742 -0.031773627 -0.10798189 -0.055356637 -0.0319566 0.08715135 0.089607865
0.07628155 0.00041252375 -0.06966652 0.0069506913 0.030411094 0.120208845 -0.01925397 0.051896334
-0.08576989 -0.063388065 0.034645006 -0.046207428 -0.116582856 0.06336288 -0.06468992 0.050032645
0.051793516 -0.06652211 0.098339796 -0.054900676 0.0045616925 0.06863792 0.08745289 0.09038164
0.054008037 -0.047269702 -0.047516435 0.11619069 -0.09338117 -0.061629295 0.028741613 0.117049396
-0.10018164 -0.018735558 0.03261207 -0.038179114 -0.006700337 -0.08859216 0.051009268 -0.042332232
-0.051990777 -0.01169382 0.09109959 -0.08948156 -0.09484391 -0.06592147 -0.029578865 -0.0044226646
-0.012005806 0.061431095 -0.028645754 0.087105826 0.094162926 0.029224157 0.08429819 -0.029172093
-0.107166365 0.039673254 0.063118115 0.09386405 0.028150246 -0.10433592 -0.0241251 -0.114629045
00000000: 4406 c73d 6b06 af3f 52a9 15be 9026 39bd
00000010: 01e9 9fbd 78a0 68bd 5e4e b0bd deec bfbd
00000020: 34c0 683e 63f1 aa3e d0e1 3e3d 6612 af3d
00000030: 8810 283e f7fc 043e 8fff 60bd 390f 48bd
00000040: 0b2d 84be f0b8 e5bd f047 41bb 2136 ddbd
00000050: a177 453f ecd8 1e3d 312c f93d 51c1 c73b
00000060: f194 c3bc cea0 e8bc aa9c b63d 70a8 43bc
00000070: 8900 72bd 24b9 e7bd b37a 2dbe baaa 0d3e
00000080: c82b a13e c6fc 25be 8020 403b 200c 7ebc
00000090: 5475 b9bd 5e43 1f3e 8d14 41bf 5751 9c3c
000000a0: d94e 8dbd 8471 31bc cf62 a93d e3a5 78bd
000000b0: 5940 3e40 e8e3 b0bd e3ae 943e da2e 1d3e
000000c0: 84a2 9a3d 81c6 4b3e 8645 683d 45c7 d7bd
000000d0: 2df5 b3bd a564 8b3b e508 4abf 569f aa3c
000000e0: aedb c23b 1bc0 503e 00b1 6b3e 6ac9 e93e
000000f0: 8f5e b33f 56c9 32be 5494 cabe d900 333d
00000100: e1ee f3bd 28d4 a73e be7c cdbe ccad 95bd
00000110: 541b 7c3d d27c a23d c304 2b3d e7ec a2bd
00000120: 4bd1 ec3b a856 103f 80b8 ed3d 1a9a 863e
00000130: 41e4 773f da31 683e 4286 373d 7f40 9b3d
00000140: 93f0 88bd ae3c 9c3d 17fc 63bd 4916 acbd
00000150: 5d1c a23f 28b1 b8bd e447 903d c95d ab3c
00000160: b353 74be fe7e 5c3d 8efb b93d f453 12bd
00000170: 567f 67bd b1e5 d03c 9397 c6be 99d8 f93d
00000180: c51f b03e 6906 4f3e 2c04 c4bd a848 ddbc
00000190: fd69 4bbf 998b 0a3e c6ee 85bf f824 c1bd
000001a0: a92a f23d 6642 b23d fe4a ec3e 0f8b b4bd
000001b0: 4063 363f f86c da3d 0cf0 cb3f 53ba 713e
000001c0: f023 48bd deff 93bc 9543 6e3d e237 c9bd
000001d0: ae1f 74be 664d b43e 0528 03c0 763c 8abd
000001e0: d45a c23d 9806 bc3e 71eb 873e 106d 5a3f
000001f0: f73e 4040 b846 8e3d 0cea ebbf 72fb 8b3e
00000200: 82e0 e8bd 0c52 27bd f840 873d fc91 9dbd
00000210: 6af3 d4bd d24c f83d 984a e23d d0c4 acbc
00000220: 7c0b 69bd e644 cf3d b06b 20bc 586c f2bc
00000230: 806e 31bd ac7d 90bd a242 dcbd 048b bf3d
00000240: 1028 55bd 10bd 36bd 140b 9abd fabe e73d
00000250: c69f b93d 3415 4d3d b004 76bc 2018 883d
00000260: a886 42bd 9c92 fd3d 5e52 bdbd fc56 5c3d
00000270: 5cd1 6fbd 34ae aebd 0c2d 95bd 34b9 80bd
00000280: 6480 43bd 567b 813d ec9c c8bd 4c0f 58bd
00000290: 6879 99bd ca11 d6bd 2018 153c 68b9 afbc
000002a0: da14 efbd 0cc7 203d 2e01 983d 4072 073b
000002b0: 0c81 ac3d 4099 d73c 32fd bcbd b80b 44bd
000002c0: 207d 9b3b 78dc f1bc 300b 673c 2c11 35bd
000002d0: 1080 35bd fc9a 44bd 844a 12bd 5857 9c3d
000002e0: 582a f2bd 4e17 e7bd 1025 02bd 9c25 ddbd
000002f0: a4bd 62bd ece4 02bd 687c b23d 5484 b73d
00000300: 8039 9c3d 0048 d839 52ad 8ebd a0c2 e33b
00000310: b020 f93c 0e30 f63d 80ba 9dbc 4091 543d
00000320: 20a8 afbd 9ad1 81bd ece7 0d3d 0044 3dbd
00000330: fec2 eebd 66c4 813d 267c 84bd 08ef 4c3d
00000340: 7025 543d be3c 88bd 6066 c93d 88df 60bd
00000350: 407a 953b 0a92 8c3d 801a b33d 021a b93d
00000360: 8837 5d3d e09d 41bd 98a0 42bd 62f5 ed3d
00000370: a03e bfbd 006f 7cbd 8873 eb3c 98b7 ef3d
00000380: 082c cdbd 507b 99bc 3c94 053d b461 1cbd
00000390: 808e dbbb ce6f b5bd 18ef 503d 9064 2dbd
000003a0: 48f4 54bd 7097 3fbc 6c92 ba3d 1c42 b7bd
000003b0: 863d c2bd d601 87bd 604f f2bc 00ec 90bb
000003c0: 00b4 44bc 2c9f 7b3d 80aa eabc 8a64 b23d
000003d0: 7ed8 c03d 8067 ef3c 88a4 ac3d 50fa eebc
000003e0: 0a7a dbbd 6c80 223d 1244 813d cc3b c03d
000003f0: 589b e63c 12ae d5bd 00a2 c5bc a2c2 eabd

bias f4 [16]
0.032640424 0.0023918527 -0.052540988 -0.07971573 0.15413232 0.034386475 -0.07978827 -0.12443027
-0.021871857 -0.004305631 -0.099055216 0.07078318 -0.056309085 0.019387174 -0.032343052 -0.0040697325
00000000: f7b1 053d a1c0 1c3b 3835 57bd 0042 a3bd
00000010: ddd4 1d3e d5d8 0c3d 0868 a3bd 4cd5 febd
00000020: 9c2c b3bc 4016 8dbb 76dd cabd c6f6 903d
00000030: 5ba4 66bd dad1 9e3c 267a 04bd 645b 85bb

weight f4 [4, 16]
0.096393466 0.09989853 0.1312913 -0.149035 -0.15369926 0.11203939 0.22915225 0.16696784
2.599077 -0.094698936 0.06136484 1.9615142 -1.8681718 1.9164723 -1.6103688 1.9114449
0.23857674 0.402069 -0.03685218 -0.1496945 0.3329289 -0.11941225 0.23242508 0.17007987
-0.28957224 -0.17243773 0.06134824 -9.453526 0.0033481375 -10.68563 -0.06735293 1.214063
0.40680435 0.89361995 0.16014248 0.09492925 0.63640624 -0.20716946 -1.7796662 0.055930614
-0.19279343 0.01649639 0.13846186 -4.9669385 0.6547415 1.9933767 0.74962854 -2.7937977
0.16598535 0.0494231 -0.16777322 -0.022700012 -0.1437717 -0.21895197 0.15197858 0.10664761
2.1598024 -0.15467253 -0.000118194475 1.4854264 -1.591315 1.755123 -1.2827636 1.5567042
00000000: f069 c53d 9a97 cc3d 3a71 063e a29c 18be
00000010: 5763 1dbe e874 e53d e3a6 6a3e 9ef9 2a3e
00000020: 4757 2640 84f1 c1bd b359 7b3d e612 fb3f
00000030: 4120 efbf f74e f53f 9120 cebf 3aaa f43f
00000040: 764d 743e fddb cd3e 50f2 16bd 8449 19be
00000050: a875 aa3e 698e f4bd d700 6e3e 6b29 2e3e
00000060: d042 94be 8493 30be 4b48 7b3d a441 17c1
00000070: 6d6c 5b3b 57f8 2ac1 55f0 89bd 6b66 9b3f
00000080: a948 d03e 47c4 643f 64fc 233e 446a c23d
00000090: 85eb 223f 3b24 54be 1acc e3bf 8017 653d
000000a0: a46b 45be 7023 873c f2c8 0d3e 29f1 9ec0
000000b0: 249d 273f f826 ff3f a8e7 3f3f 95cd 32c0
000000c0: 10f8 293e e06f 4a3d becc 2bbe 60f5 b9bc
000000d0: e338 13be f234 60be 46a0 1b3e 106a da3d
000000e0: 343a 0a40 7a62 1ebe 2ddf f7b8 7422 be3f
000000f0: 36b0 cbbf dfa7 e03f 9931 a4bf 1542 c73f

bias f4 [4]
-0.36565036 -0.06462784 0.013899994 -0.3071981
00000000: 8636 bbbe 9a5b 84bd cdbc 633c 1249 9dbe

weight f4 [1, 4]
-15.473723 4.79292 -1.3083408 -13.828799
00000000: 5f94 77c1 9a5f 9940 b677 a7bf c342 5dc1
